…
 class="line">105</span><br><span class="line">106</span><br><span class="line">107</span><br><span class="line">108</span><br><span class="line">109</span><br><span class="line">110</span><br><span class="line">111</span><br><span class="line">112</span><br><span class="line">113</span><br><span class="line">114</span><br><span class="line">115</span><br><span class="line">116</span><br></pre></td><td class="code"><pre><span class="line">Using TensorFlow backend.</span><br><span class="line">layer     filters    size              input                output</span><br><span class="line">    0 conv     32  3 x 3 / 1   416 x 416 x   3   -&gt;   416 x 416 x  32  0.299 BFLOPs</span><br><span class="line">    1 conv     64  3 x 3 / 2   416 x 416 x  32   -&gt;   208 x 208 x  64  1.595 BFLOPs</span><br><span class="line">    2 conv     32  1 x 1 / 1   208 x 208 x  64   -&gt;   208 x 208 x  32  0.177 BFLOPs</span><br><span class="line">    3 conv     64  3 x 3 / 1   208 x 208 x  32   -&gt;   208 x 208 x  64  1.595 BFLOPs</span><br><span class="line">    4 res    1                 208 x 208 x  64   -&gt;   208 x 208 x  64</span><br><span class="line">    5 conv    128  3 x 3 / 2   208 x 208 x  64   -&gt;   104 x 104 x 128  1.595 BFLOPs</span><br><span class="line">    6 conv     64  1 x 1 / 1   104 x 104 x 128   -&gt;   104 x 104 x  64  0.177 BFLOPs</span><br><span class="line">    7 conv    128  3 x 3 / 1   104 x 104 x  64   -&gt;   104 x 104 x 128  1.595 BFLOPs</span><br><span class="line">    8 res    5                 104 x 104 x 128   -&gt;   104 x 104 x 128</span><br><span class="line">    9 conv     64  1 x 1 / 1   104 x 104 x 128   -&gt;   104 x 104 x  64  0.177 BFLOPs</span><br><span class="line">   10 conv    128  3 x 3 / 1   104 x 104 x  64   -&gt;   104 x 104 x 128  1.595 BFLOPs</span><br><span class="line">   11 res    8                 104 x 104 x 128   -&gt;   104 x 104 x 128</span><br><span class="line">   12 conv    256  3 x 3 / 2   104 x 104 x 128   -&gt;    52 x  52 x 256  1.595 BFLOPs</span><br><span class="line">   13 conv    128  1 x 1 / 1    52 x  52 x 256   -&gt;    52 x  52 x 128  0.177 BFLOPs</span><br><span class="line">   14 conv    256  3 x 3 / 1    52 x  52 x 128   -&gt;    52 x  52 x 256  1.595 BFLOPs</span><br><span class="line">   15 res   12                  52 x  52 x 256   -&gt;    52 x  52 x 256</span><br><span class="line">   16 conv    128  1 x 1 / 1    52 x  52 x 256   -&gt;    52 x  52 x 128  0.177 BFLOPs</span><br><span class="line">   17 conv    256  3 x 3 / 1    52 x  52 x 128   -&gt;    52 x  52 x 256  1.595 BFLOPs</span><br><span class="line">   18 res   15                  52 x  52 x 256   -&gt;    52 x  52 x 256</span><br><span class="line">   19 conv    128  1 x 1 / 1    52 x  52 x 256   -&gt;    52 x  52 x 128  0.177 BFLOPs</span><br><span class="line">   20 conv    256  3 x 3 / 1    52 x  52 x 128   -&gt;    52 x  52 x 256  1.595 BFLOPs</span><br><span class="line">   21 res   18                  52 x  52 x 256   -&gt;    52 x  52 x 256</span><br><span class="line">   22 conv    128  1 x 1 / 1    52 x  52 x 256   -&gt;    52 x  52 x 128  0.177 BFLOPs</span><br><span class="line">   23 conv    256  3 x 3 / 1    52 x  52 x 128   -&gt;    52 x  52 x 256  1.595 BFLOPs</span><br><span class="line">   24 res   21                  52 x  52 x 256   -&gt;    52 x  52 x 256</span><br><span class="line">   25 conv    128  1 x 1 / 1    52 x  52 x 256   -&gt;    52 x  52 x 128  0.177 BFLOPs</span><br><span class="line">   26 conv    256  3 x 3 / 1    52 x  52 x 128   -&gt;    52 x  52 x 256  1.595 BFLOPs</span><br><span class="line">   27 res   24                  52 x  52 x 256   -&gt;    52 x  52 x 256</span><br><span class="line">   28 conv    128  1 x 1 / 1    52 x  52 x 256   -&gt;    52 x  52 x 128  0.177 BFLOPs</span><br><span class="line">   29 conv    256  3 x 3 / 1    52 x  52 x 128   -&gt;    52 x  52 x 256  1.595 BFLOPs</span><br><span class="line">   30 res   27                  52 x  52 x 256   -&gt;    52 x  52 x 256</span><br><span class="line">   31 conv    128  1 x 1 / 1    52 x  52 x 256   -&gt;    52 x  52 x 128  0.177 BFLOPs</span><br><span class="line">   32 conv    256  3 x 3 / 1    52 x  52 x 128   -&gt;    52 x  52 x 256  1.595 BFLOPs</span><br><span class="line">   33 res   30                  52 x  52 x 256   -&gt;    52 x  52 x 256</span><br><span class="line">   34 conv    128  1 x 1 / 1    52 x  52 x 256   -&gt;    52 x  52 x 128  0.177 BFLOPs</span><br><span class="line">   35 conv    256  3 x 3 / 1    52 x  52 x 128   -&gt;    52 x  52 x 256  1.595 BFLOPs</span><br><span class="line">   36 res   33                  52 x  52 x 256   -&gt;    52 x  52 x 256</span><br><span class="line">   37 conv    512  3 x 3 / 2    52 x  52 x 256   -&gt;    26 x  26 x 512  1.595 BFLOPs</span><br><span class="line">   38 conv    256  1 x 1 / 1    26 x  26 x 512   -&gt;    26 x  26 x 256  0.177 BFLOPs</span><br><span class="line">   39 conv    512  3 x 3 / 1    26 x  26 x 256   -&gt;    26 x  26 x 512  1.595 BFLOPs</span><br><span class="line">   40 res   37                  26 x  26 x 512   -&gt;    26 x  26 x 512</span><br><span class="line">   41 conv    256  1 x 1 / 1    26 x  26 x 512   -&gt;    26 x  26 x 256  0.177 BFLOPs</span><br><span class="line">   42 conv    512  3 x 3 / 1    26 x  26 x 256   -&gt;    26 x  26 x 512  1.595 BFLOPs</span><br><span class="line">   43 res   40                  26 x  26 x 512   -&gt;    26 x  26 x 512</span><br><span class="line">   44 conv    256  1 x 1 / 1    26 x  26 x 512   -&gt;    26 x  26 x 256  0.177 BFLOPs</span><br><span class="line">   45 conv    512  3 x 3 / 1    26 x  26 x 256   -&gt;    26 x  26 x 512  1.595 BFLOPs</span><br><span class="line">   46 res   43                  26 x  26 x 512   -&gt;    26 x  26 x 512</span><br><span class="line">   47 conv    256  1 x 1 / 1    26 x  26 x 512   -&gt;    26 x  26 x 256  0.177 BFLOPs</span><br><span class="line">   48 conv    512  3 x 3 / 1    26 x  26 x 256   -&gt;    26 x  26 x 512  1.595 BFLOPs</span><br><span class="line">   49 res   46                  26 x  26 x 512   -&gt;    26 x  26 x 512</span><br><span class="line">   50 conv    256  1 x 1 / 1    26 x  26 x 512   -&gt;    26 x  26 x 256  0.177 BFLOPs</span><br><span class="line">   51 conv    512  3 x 3 / 1    26 x  26 x 256   -&gt;    26 x  26 x 512  1.595 BFLOPs</span><br><span class="line">   52 res   49                  26 x  26 x 512   -&gt;    26 x  26 x 512</span><br><span class="line">   53 conv    256  1 x 1 / 1    26 x  26 x 512   -&gt;    26 x  26 x 256  0.177 BFLOPs</span><br><span class="line">   54 conv    512  3 x 3 / 1    26 x  26 x 256   -&gt;    26 x  26 x 512  1.595 BFLOPs</span><br><span class="line">   55 res   52                  26 x  26 x 512   -&gt;    26 x  26 x 512</span><br><span class="line">   56 conv    256  1 x 1 / 1    26 x  26 x 512   -&gt;    26 x  26 x 256  0.177 BFLOPs</span><br><span class="line">   57 conv    512  3 x 3 / 1    26 x  26 x 256   -&gt;    26 x  26 x 512  1.595 BFLOPs</span><br><span class="line">   58 res   55                  26 x  26 x 512   -&gt;    26 x  26 x 512</span><br><span class="line">   59 conv    256  1 x 1 / 1    26 x  26 x 512   -&gt;    26 x  26 x 256  0.177 BFLOPs</span><br><span class="line">   60 conv    512  3 x 3 / 1    26 x  26 x 256   -&gt;    26 x  26 x 512  1.595 BFLOPs</span><br><span class="line">   61 res   58                  26 x  26 x 512   -&gt;    26 x  26 x 512</span><br><span class="line">   62 conv   1024  3 x 3 / 2    26 x  26 x 512   -&gt;    13 x  13 x1024  1.595 BFLOPs</span><br><span class="line">   63 conv    512  1 x 1 / 1    13 x  13 x1024   -&gt;    13 x  13 x 512  0.177 BFLOPs</span><br><span class="line">   64 conv   1024  3 x 3 / 1    13 x  13 x 512   -&gt;    13 x  13 x1024  1.595 BFLOPs</span><br><span class="line">   65 res   62                  13 x  13 x1024   -&gt;    13 x  13 x1024</span><br><span class="line">   66 conv    512  1 x 1 / 1    13 x  13 x1024   -&gt;    13 x  13 x 512  0.177 BFLOPs</span><br><span class="line">   67 conv   1024  3 x 3 / 1    13 x  13 x 512   -&gt;    13 x  13 x1024  1.595 BFLOPs</span><br><span class="line">   68 res   65                  13 x  13 x1024   -&gt;    13 x  13 x1024</span><br><span class="line">   69 conv    512  1 x 1 / 1    13 x  13 x1024   -&gt;    13 x  13 x 512  0.177 BFLOPs</span><br><span class="line">   70 conv   1024  3 x 3 / 1    13 x  13 x 512   -&gt;    13 x  13 x1024  1.595 BFLOPs</span><br><span class="line">   71 res   68                  13 x  13 x1024   -&gt;    13 x  13 x1024</span><br><span class="line">   72 conv    512  1 x 1 / 1    13 x  13 x1024   -&gt;    13 x  13 x 512  0.177 BFLOPs</span><br><span class="line">   73 conv   1024  3 x 3 / 1    13 x  13 x 512   -&gt;    13 x  13 x1024  1.595 BFLOPs</span><br><span class="line">   74 res   71                  13 x  13 x1024   -&gt;    13 x  13 x1024</span><br><span class="line">   --------------------------------------------------------------------------------</span><br><span class="line">   75 conv    512  1 x 1 / 1    13 x  13 x1024   -&gt;    13 x  13 x 512  0.177 BFLOPs</span><br><span class="line">   76 conv   1024  3 x 3 / 1    13 x  13 x 512   -&gt;    13 x  13 x1024  1.595 BFLOPs</span><br><span class="line">   77 conv    512  1 x 1 / 1    13 x  13 x1024   -&gt;    13 x  13 x 512  0.177 BFLOPs  Convolutional Set</span><br><span class="line">   78 conv   1024  3 x 3 / 1    13 x  13 x 512   -&gt;    13 x  13 x1024  1.595 BFLOPs</span><br><span class="line">   79 conv    512  1 x 1 / 1    13 x  13 x1024   -&gt;    13 x  13 x 512  0.177 BFLOPs</span><br><span class="line">   --------------------------------------------------------------------------------</span><br><span class="line">   80 conv   1024  3 x 3 / 1    13 x  13 x 512   -&gt;    13 x  13 x1024  1.595 BFLOPs</span><br><span class="line">   81 conv    255  1 x 1 / 1    13 x  13 x1024   -&gt;    13 x  13 x 255  0.088 BFLOPs</span><br><span class="line">   82 yolo</span><br><span class="line">   83 route  79</span><br><span class="line">   84 conv    256  1 x 1 / 1    13 x  13 x 512   -&gt;    13 x  13 x 256  0.044 BFLOPs</span><br><span class="line">   85 upsample            2x    13 x  13 x 256   -&gt;    26 x  26 x 256</span><br><span class="line">   86 route  85 61</span><br><span class="line">   --------------------------------------------------------------------------------</span><br><span class="line">   87 conv    256  1 x 1 / 1    26 x  26 x 768   -&gt;    26 x  26 x 256  0.266 BFLOPs</span><br><span class="line">   88 conv    512  3 x 3 / 1    26 x  26 x 256   -&gt;    26 x  26 x 512  1.595 BFLOPs</span><br><span class="line">   89 conv    256  1 x 1 / 1    26 x  26 x 512   -&gt;    26 x  26 x 256  0.177 BFLOPs  Convolutional Set</span><br><span class="line">   90 conv    512  3 x 3 / 1    26 x  26 x 256   -&gt;    26 x  26 x 512  1.595 BFLOPs</span><br><span class="line">   91 conv    256  1 x 1 / 1    26 x  26 x 512   -&gt;    26 x  26 x 256  0.177 BFLOPs</span><br><span class="line">   --------------------------------------------------------------------------------</span><br><span class="line">   92 conv    512  3 x 3 / 1    26 x  26 x 256   -&gt;    26 x  26 x 512  1.595 BFLOPs</span><br><span class="line">   93 conv    255  1 x 1 / 1    26 x  26 x 512   -&gt;    26 x  26 x 255  0.177 BFLOPs</span><br><span class="line">   94 yolo</span><br><span class="line">   95 route  91</span><br><span class="line">   96 conv    128  1 x 1 / 1    26 x  26 x 256   -&gt;    26 x  26 x 128  0.044 BFLOPs</span><br><span class="line">   97 upsample            2x    26 x  26 x 128   -&gt;    52 x  52 x 128</span><br><span class="line">   98 route  97 36</span><br><span class="line">   --------------------------------------------------------------------------------</span><br><span class="line">   99 conv    128  1 x 1 / 1    52 x  52 x 384   -&gt;    52 x  52 x 128  0.266 BFLOPs</span><br><span class="line">  100 conv    256  3 x 3 / 1    52 x  52 x 128   -&gt;    52 x  52 x 256  1.595 BFLOPs</span><br><span class="line">  101 conv    128  1 x 1 / 1    52 x  52 x 256   -&gt;    52 x  52 x 128  0.177 BFLOPs  Convolutional Set</span><br><span class="line">  102 conv    256  3 x 3 / 1    52 x  52 x 128   -&gt;    52 x  52 x 256  1.595 BFLOPs</span><br><span class="line">  103 conv    128  1 x 1 / 1    52 x  52 x 256   -&gt;    52 x  52 x 128  0.177 BFLOPs</span><br><span class="line">  --------------------------------------------------------------------------------</span><br><span class="line">  104 conv    256  3 x 3 / 1    52 x  52 x 128   -&gt;    52 x  52 x 256  1.595 BFLOPs</span><br><span class="line">  105 conv    255  1 x 1 / 1    52 x  52 x 256   -&gt;    52 x  52 x 255  0.353 BFLOPs</span><br><span class="line">  106 yolo</span><br><span class="line"></span><br></pre></td></tr></table></figure>]]></content>
    
    
    <summary type="html">&lt;h1 id=&quot;yolo&quot;&gt;YOLO&lt;/h1&gt;
&lt;h2 id=&quot;yolo-æŸå¤±å‡½æ•°ç¬¬äºŒéƒ¨åˆ†&quot;&gt;1. YOLO æŸå¤±å‡½æ•°ç¬¬äºŒéƒ¨åˆ†&lt;/h2&gt;
&lt;p&gt;å¯¹äºwidth, heightçš„loss, ä½œè€…åœ¨è®ºæ–‡ä¸­è¯´æ˜ä½¿ç”¨square rootçš„åŸå› ï¼š
…
